code/Epoch_200.pth (torch, 35207 bytes, 10 tensors)

gamma_generator.net1.0.weight f4 [16, 3, 3, 3]
00000000: 5598 113d b5ef 173d 0679 48bc 94c1 553d
00000010: 4a6d 7d3d aab1 f43c 041e ed3b 5d7b 143d
00000020: 7cf8 8dbc 9dd9 ba3c 0b47 e93c 89a6 a6bc
00000030: acb4 273d 02cd 693d c979 bc3c 85e7 963a
00000040: 0199 143d 848d 9ebc 094f 7fbd 775d d5bc
00000050: 65cb a8bd 46b1 89bc b046 e43c e479 a2bc
00000060: 6e46 8dbd 4d17 a0bc 4cff 9dbd cdcc 893d
00000070: 4a72 523d 05c0 3fbc ac4e 1a3d 4899 803d
00000080: dcb1 843c bd26 d03b 2221 abb9 fa70 44bd
00000090: 8306 823d e2a4 673d 6aae cebc a8e5 963d
000000a0: 1be2 ab3d 348e d13c 59cb 3f3c c82b eb3c
000000b0: 7aea 20bd 0248 163c 5f6f ad3c 4aa7 81bd
000000c0: 3a2a 213d 8169 963d 5082 373c a130 12bd
000000d0: 9e1d 0e3b 8066 adbd 15a2 f93c 62be 323d
000000e0: f785 a03c b2be 653d bde7 943d 28ce 513d
000000f0: f094 6b3c 2ae3 163d 442d b43c a12e 2b3d
00000100: 932f 693d ea8e 133d fd64 8a3d d341 b13d
00000110: bb06 8b3d 9483 e73c 4081 583d 4eac 273d
00000120: ef89 f13d 695b 0d3e 140a ff3d f020 123e
00000130: ea9d 2a3e 51e0 1f3e d4fc d73d da80 0b3e
00000140: 47f0 063e 184a 8bbd 95c5 14bc cf99 0bbe
00000150: 5ec1 803b 8820 943d 077e 96bd e06c 41bd
00000160: f36f b63c 2749 c1bd 8158 7dbd 96ba 1cba
00000170: 3037 05be f9a4 c83c 4e6d b83d e197 17bd
00000180: d4a2 15bd 7532 0a3d 19fc 9cbd 2841 c7bd
00000190: 5618 e9bc b48b 20be fdc3 b6bb 797b 943d
000001a0: 7275 75bd cd96 6bbd bd62 083d b899 a8bd
000001b0: 3295 0080 1648 0080 9417 0280 4895 0100
000001c0: f45d 0100 522d 0080 1691 0100 cbc5 0180
000001d0: 5de0 0080 b356 0100 042f 0080 b413 0000
000001e0: e14d 0000 d94b 0000 0806 0000 578d 0080
000001f0: 56f0 0180 5677 0080 5c0c 0100 a2fb 0000
00000200: 074f 0080 b2f5 0000 a7c0 0180 1076 0080
00000210: 26f9 0000 a1f1 0000 c3aa 0000 c868 e8bd
00000220: d529 663c 227f 89bc b171 2cbd 3831 bb3d
00000230: 07e7 3f3d d7cb dabd f3e7 963c 58b4 aabc
00000240: ae65 07be 5b88 a53c c934 adbc 7def 17bd
00000250: bac7 c03d f1b6 583d 61b5 d5bd d8cc d03c
00000260: df48 70bc b4fa 46be febe 563b 0ca7 4fbd
00000270: b3f0 70bd 1b2b ad3d 4af8 4b3d 95cc 1cbe
00000280: effd 5b3c 1d41 e8bc c9bb 0180 917b 0180
00000290: 85b1 0180 fd5d 0080 26dc 0080 2ae9 0080
000002a0: 8420 0180 d08e 0100 d9ed 0100 4a01 0000
000002b0: 170e 0080 562c 0080 cbaf 0080 4d4f 0000
000002c0: cb82 0180 86e9 0000 1aba 0080 a7bf 0180
000002d0: ef9c 0000 3089 0180 5aae 0000 8829 0080
000002e0: 1816 0180 8ff8 0080 7676 0080 2549 0000
000002f0: f194 0000 578b 20be 0866 7abd 7043 3dbe
00000300: 3491 84bd 6922 b03c 53af b6bd b34c 31be
00000310: 2ed7 99bd 463f 3dbe b4f5 e7bd f564 31bc
00000320: 9572 06be 9ccf a8bc 35bb 983d 3c3f 01bd
00000330: 52e2 f1bd 554c 87bc 9a3e 00be 26aa cbbd
00000340: 7be5 233b 8797 d1bd 76fd f6bb 2bd3 da3d
00000350: 759d 82ba 20fe b0bd 6b2c d03c 6f82 a4bd
00000360: 4abc ad3c 8467 c83c a72d afbb 428c 2a3d
00000370: 0aa8 8d3d 04bc 0c3d fd73 373c 42c5 473d
00000380: c8c8 173c fa3d ce3b 85ae cf3c fc89 82bc
00000390: 4c36 573d ac50 863d ca74 063d d04d 2d3c
000003a0: deb5 433d c487 e13b f8ad d8bd 142b 52bd
000003b0: 2bdd c0bd 56f9 10bd c6d3 3d3c dede cdbc
000003c0: a564 9bbd 687b 95bc 0801 82bd d6bc df3c
000003d0: 0550 f23c 2792 fe3a ea3c 2b3d 86b6 633d
000003e0: a39c 043d b9b5 53bc d11f ed3c bf29 35bc
000003f0: 852a 323c 7769 f73c dbe9 bcb8 890b 013d
0.035545666 0.037093837 -0.0122358855 0.052186564 0.061871804 0.029869873 0.007236244 0.03625046
-0.0173304 0.022808844 0.028476259 -0.020343082 0.040943787 0.057080276 0.02300729 0.001151309
0.03627873 -0.01935459 -0.062331233 -0.026045544 -0.082419194 -0.016808163 0.027865738 -0.019833513
-0.06898199 -0.01954236 -0.0771471 0.06728516 0.051378526 -0.011703496 0.037672684 0.06279236
0.016198091 0.006352274 -0.00032640347 -0.047959305 0.06348898 0.05655373 -0.025229651 0.07368022
0.083927356 0.025580503 0.011706197 0.0287074 -0.039286114 0.009172441 0.02117127 -0.06330736
0.03934691 0.07344342 0.0112005025 -0.035690907 0.0021685134 -0.08466816 0.030472795 0.043638594
0.01959513 0.056090064 0.07270763 0.051221997 0.014378771 0.036837734 0.02199424 0.041792516
0.056930136 0.036024965 0.06757543 0.08655133 0.06788393 0.028260984 0.052857637 0.040935807
0.11793887 0.13804401 0.12453094 0.14270377 0.16661802 0.15612914 0.1054627 0.13623372
0.13177596 -0.06801242 -0.00908031 -0.13632892 0.003929301 0.07232767 -0.073482566 -0.047222972
0.022270178 -0.09437781 -0.061851982 -0.0005978731 -0.13009334 0.024492728 0.09005223 -0.037010077
-0.036532238 0.033739526 -0.07665271 -0.097292244 -0.028453987 -0.15678293 -0.005577563 0.07250113
-0.059926458 -0.05751686 0.03329729 -0.082324445 -5.3521e-41 -2.586e-41 -1.92129e-40 1.45388e-40
1.2554e-40 -1.6258e-41 1.43883e-40 -1.6279e-40 -8.0486e-41 1.22937e-40 -1.6866e-41 7.068e-42
2.7938e-41 2.7209e-41 2.164e-42 -5.0703e-41 -1.78052e-40 -4.281e-41 9.6269e-41 9.0269e-41
-2.835e-41 8.8139e-41 -1.60946e-40 -4.2353e-41 8.9378e-41 8.668e-41 6.1258e-41 -0.113481104
0.0140480595 -0.016784254 -0.042100612 0.09140247 0.046851184 -0.106834106 0.018421149 -0.020837948
-0.13222381 0.02020662 -0.021143334 -0.03709363 0.09413095 0.05290884 -0.10434986 0.025488302
-0.014665811 -0.19431573 0.0032767649 -0.050696418 -0.0588233 0.08455487 0.049797334 -0.15312417
0.013427242 -0.028351361 -1.592e-40 -1.36163e-40 -1.55518e-40 -3.3717e-41 -7.8974e-41 -8.3644e-41
-1.035e-40 1.43067e-40 1.77159e-40 4.62e-43 -5.054e-42 -1.5905e-41 -6.3063e-41 2.8448e-41
-1.38755e-40 8.3772e-41 -6.676e-41 -1.60587e-40 5.6297e-41 -1.41049e-40 6.2546e-41 -1.4899e-41
-9.9761e-41 -8.9166e-41 -4.2496e-41 2.624e-41 5.343e-41 -0.15678154 -0.06113246 -0.18482757
-0.06473008 0.021500783 -0.08920159 -0.17314415 -0.075117454 -0.18481168 -0.11326161 -0.010827293
-0.13129647 -0.020606808 0.07457582 -0.031554446 -0.11810745 -0.01651589 -0.1252388 -0.099445626
0.0025008607 -0.1023398 -0.007537539 0.10684808 -0.0009965139 -0.086422205 0.025411805 -0.08032691
0.021207947 0.024463423 -0.0053460184 0.041637667 0.069168165 0.034358993 0.011197087 0.048772104
0.009264179 0.0062940093 0.025351772 -0.015934937 0.052542016 0.06558356 0.032826222 0.010577634
0.047780864 0.0068826396 -0.10580057 -0.051310614 -0.094171844 -0.035394035 0.011586135 -0.025130685
-0.07587556 -0.018247321 -0.06347853 0.027311724 0.029579172 0.0019422219 0.04180614 0.05559399
0.032375943 -0.012921744 0.028945835 -0.011057316 0.010874395 0.030201657 -9.0080975e-05 0.03150514

gamma_generator.net1.0.bias f4 [16]
00000000: bd01 aa3e 54e8 8c3e 1919 adbd 83bd d13e
00000010: 75fe 0180 c73b c03e 8f08 0000 c505 b23e
00000020: 18f8 ad3e 7be5 bf3e 451d ae3e cf78 553c
00000030: 3558 0100 9b05 f03e 406a aa3e 71cd bb3e
0.3320445 0.27521002 -0.084520526 0.40964898 -1.83117e-40 0.37545606 3.07e-42 0.34770027
0.33978343 0.37479767 0.34006706 0.013029291 1.23478e-40 0.46879277 0.33284187 0.36680177

gamma_generator.net2.0.weight f4 [16, 16, 3, 3]
00000000: 3b58 6bb6 9cc6 74b6 f94a 6eb6 1d70 6eb6
00000010: 66c5 78b6 94ad 72b6 e248 63b6 9010 6db6
00000020: cc5e 68b6 7082 6bb7 71e3 76b7 1966 71b7
00000030: f07b 71b7 b971 7eb7 27eb 79b7 1b39 6bb7
00000040: 989a 78b7 82d6 75b7 e253 5bb9 54e3 5cb9
00000050: 5c14 56b9 3157 5db9 ed21 60b9 b958 5ab9
00000060: 39b2 58b9 ea4c 5cb9 138c 57b9 eeec d9b0
00000070: 2b94 0cb1 6fcf 29b1 43c8 c4b0 30ec 00b1
00000080: 4cbc 1eb1 3b9d b3b0 9c23 e3b0 4277 0bb1
00000090: 1e99 0000 d889 0080 360a 0000 0ad7 0080
000000a0: ade9 0100 a14e 0180 fa41 0000 60c8 0000
000000b0: 1e0b 0180 fc3e 6332 b8c0 9632 faa1 9332
000000c0: d401 7832 f30c a332 4649 a132 a3a0 6632
000000d0: 71aa 9732 54b6 9532 ad9d 0100 2c65 0100
000000e0: ba39 0080 0114 0100 a1e9 0180 a28c 0000
000000f0: 29e9 0180 e053 0100 027b 0080 a990 0ba4
00000100: 672d 3ba4 7e37 0da4 0dec 35a4 dd72 6ea4
00000110: 5b91 33a4 3d51 11a4 cde7 3ca4 ce97 0aa4
00000120: d5ce 8bb6 63e3 8eb6 3816 8ab6 2dd3 8bb6
00000130: d339 8fb6 19a2 8ab6 209b 83b6 a895 86b6
00000140: 37a1 82b6 a06a ccb5 b058 cfb5 7f5c c7b5
00000150: 7053 d0b5 09b0 d3b5 9230 cbb5 8dee c6b5
00000160: 12b3 c9b5 b6b0 c2b5 9385 8a31 ecc9 7d31
00000170: 5d10 3a31 0618 8f31 ae1c 8231 f92d 3f31
00000180: d7c2 6731 0fbe 4f31 c737 0f31 e2a1 b2b9
00000190: c25d b3b9 5f1c afb9 7e9f b3b9 f5fc b4b9
000001a0: 3c4f b1b9 59f6 b0b9 e8da b2b9 08d0 afb9
000001b0: 522c 0100 7237 0100 ba73 0100 88e7 0000
000001c0: 64b5 0080 9abd 0080 be4a 0180 c0b3 0100
000001d0: b3f4 0000 d13a 9ab1 c5ef a3b1 1fc8 96b1
000001e0: ed7f aeb1 fa65 b8b1 c19b a8b1 ab03 abb1
000001f0: d547 b4b1 57c8 a4b1 9368 c3b7 218f c8b7
00000200: cb81 c3b7 7ce0 c6b7 70d2 ccb7 4837 c8b7
00000210: 8219 c2b7 684b c8b7 95be c4b7 cf0b eab4
00000220: 52c9 f6b4 3843 f6b4 1b52 f6b4 da02 01b5
00000230: d9d7 ffb4 9c10 f7b4 0f0e 01b5 9ee1 ffb4
00000240: a5dc 2f3d 3c00 783d 566b 703d 1540 693d
00000250: 314d 973d 8e9a 903d fce3 503d 1f95 8c3d
00000260: ca44 873d cd00 15bd 66a9 abbb 53ef 443b
00000270: 4bda e6bb 4cd2 bb3c cb64 f03c 0e95 dbba
00000280: 2d28 ec3c 3f0a 123d 677d 8bbe 2c9b 63be
00000290: a890 70be ed26 4fbe ec3c 1abe ae99 27be
000002a0: 6cf8 3fbe 9cd9 05be 0dc4 10be a1ad 2a3e
000002b0: d535 293e 1d5c 363e e0ff 103e 0d96 0e3e
000002c0: 4cc4 1c3e 7e27 fd3d 04bc f73d 6f5f 093e
000002d0: f2e3 0000 4901 0100 d5da 0000 ab43 0000
000002e0: 013a 0180 7264 0000 1937 0180 ee05 0180
000002f0: c91a 0100 3092 2f3e faf9 123e 60e2 de3d
00000300: 2e62 263e 6950 083e 9104 c93d e104 1d3e
00000310: e005 fc3d e029 b23d 3c66 0100 70ac 0100
00000320: cbfe 0000 a917 0080 3a9e 0000 d92e 0000
00000330: 3f29 0180 a5f1 0100 49b0 0080 addf 423e
00000340: af5d 363e d661 3b3e 52d5 2e3e cc2b 203e
00000350: 37a2 253e c89a 283e ea17 193e 6217 1d3e
00000360: 9f14 853d 1446 a23d 89a9 933d db30 993d
00000370: 7b42 b53d 07fa a13d 0674 7d3d 5f0e 9e3d
00000380: faca 8e3d 1e65 913d 6835 a83d 8b0f 963d
00000390: 4828 ad3d 5d7c c03d 8a0b ac3d a220 a33d
000003a0: 4286 b73d 94de a23d 50c4 af3d 3e39 bf3d
000003b0: 94b0 d93d 8b3d ba3d 77d6 c43d 2794 dc3d
000003c0: fefb c33d 606f cd3d 085e e23d 1349 8abe
000003d0: 93b6 56be 22b9 64be c57b 44be 5e14 07be
000003e0: 3d2a 15be c677 2fbe 15a4 dcbd 5a5f f5bd
000003f0: 68d1 0080 cf91 0100 33ce 0000 0405 0000
-3.5069086e-06 -3.647444e-06 -3.5508403e-06 -3.5530022e-06 -3.706978e-06 -3.6161846e-06 -3.386806e-06 -3.5325393e-06
-3.4625873e-06 -1.4037461e-05 -1.4715698e-05 -1.4388491e-05 -1.4393576e-05 -1.5166058e-05 -1.4896307e-05 -1.4020387e-05
-1.4817946e-05 -1.4653082e-05 -0.00020916716 -0.00021065521 -0.00020416215 -0.00021108684 -0.00021374943 -0.00020823152
-0.00020665758 -0.00021009488 -0.0002055618 -1.5856167e-09 -2.0456905e-09 -2.471065e-09 -1.4317795e-09 -1.8760709e-09
-2.309906e-09 -1.3068652e-09 -1.6526545e-09 -2.0294952e-09 5.4928e-41 -4.9449e-41 3.663e-42 -7.7141e-41
1.75663e-40 -1.20042e-40 2.3668e-41 7.1881e-41 -9.5824e-41 1.322746e-08 1.7549937e-08 1.718671e-08
1.4435916e-08 1.8981586e-08 1.8776188e-08 1.3424287e-08 1.7656221e-08 1.7428796e-08 1.48399e-40 1.28129e-40
-2.0708e-41 9.9012e-41 -1.75646e-40 5.045e-41 -1.75478e-40 1.21924e-40 -4.4127e-41 -3.0263352e-17
-4.058762e-17 -3.0621505e-17 -3.944806e-17 -5.1705316e-17 -3.893756e-17 -3.1510675e-17 -4.0962345e-17 -3.0052564e-17
-4.1666012e-06 -4.258401e-06 -4.115307e-06 -4.167107e-06 -4.2684637e-06 -4.131591e-06 -3.922163e-06 -4.0109335e-06
-3.89307e-06 -1.5230216e-06 -1.5448513e-06 -1.4853575e-06 -1.5521491e-06 -1.5771958e-06 -1.5138814e-06 -1.4821577e-06
-1.5027783e-06 -1.4505556e-06 4.0315142e-09 3.6931125e-09 2.7075864e-09 4.164579e-09 3.7867585e-09 2.782029e-09
3.3725678e-09 3.02305e-09 2.0840945e-09 -0.00034071418 -0.00034211396 -0.0003339974 -0.00034260371 -0.00034520743
-0.00033819105 -0.0003375288 -0.00034113904 -0.00033533596 1.07735e-40 1.11726e-40 1.3335e-40 8.3058e-41
-6.507e-41 -6.8016e-41 -1.18648e-40 1.56318e-40 8.7782e-41 -4.4886765e-09 -4.771183e-09 -4.3883257e-09
-5.07861e-09 -5.366698e-09 -4.9071507e-09 -4.977172e-09 -5.246856e-09 -4.795804e-09 -2.3294508e-05 -2.3908508e-05
-2.3306251e-05 -2.3707973e-05 -2.4416688e-05 -2.38676e-05 -2.313848e-05 -2.3876972e-05 -2.3453767e-05 -4.3594488e-07
-4.596755e-07 -4.586998e-07 -4.588081e-07 -4.8060394e-07 -4.76545e-07 -4.601942e-07 -4.80767e-07 -4.766161e-07
0.042935032 0.0605471 0.058696114 0.05694588 0.0738777 0.07060729 0.050998673 0.0686438
0.06604917 -0.036377717 -0.0052386997 0.0030049875 -0.0070450655 0.022927426 0.029344937 -0.0016752796
0.028827751 0.035654303 -0.27244112 -0.22227162 -0.23492682 -0.20229693 -0.15062302 -0.16367218
-0.18747109 -0.13071293 -0.14137287 0.16667797 0.16524442 0.17808576 0.14160109 0.13924427
0.15309256 0.12361048 0.12096408 0.13415311 8.1771e-41 9.2297e-41 7.8502e-41 2.4275e-41
-1.12643e-40 3.6033e-41 -1.11601e-40 -9.3963e-41 1.01444e-40 0.1714561 0.14353171 0.10883021
0.1624839 0.13311924 0.09815324 0.15333892 0.12305808 0.08699393 1.2851e-40 1.53694e-40
9.1402e-41 -8.488e-42 5.6761e-41 1.6806e-41 -1.06632e-40 1.78521e-40 -6.3239e-41 0.19030638
0.17809175 0.1829904 0.17073563 0.15641707 0.16175161 0.16465294 0.14950529 0.15340951
0.06498074 0.079235226 0.07210071 0.074800216 0.08850571 0.07909017 0.061878227 0.07717585
0.069723085 0.07099365 0.082133114 0.07327183 0.08454949 0.093987204 0.084006384 0.079652086
0.089611545 0.0795261 0.085823655 0.0933709 0.10629383 0.0909377 0.096112184 0.10770445
0.09569548 0.10031009 0.11053091 -0.27008876 -0.20968084 -0.22336248 -0.1918784 -0.13191363
-0.14566894 -0.17135534 -0.10773484 -0.119810775 -7.5121e-41 1.44142e-40 7.397e-41 1.799e-42

gamma_generator.net2.0.bias f4 [16]
00000000: 35f5 a538 e41d 1c3e 59be 78b5 260b 2da7
00000010: a7fb 8ab5 fa25 473e 360d dbad 040c 24b7
00000020: ff46 3c3e f608 9fb1 1c18 9191 2b7b ccb6
00000030: 28e1 4fb7 f64b fa3d 3fdc 83b4 f36b 77b9
7.9134865e-05 0.15245777 -9.266419e-07 -2.4014616e-15 -1.0355042e-06 0.1944808 -2.4903284e-11 -9.777959e-06
0.18386458 -4.628528e-09 -2.2891825e-28 -6.0940124e-06 -1.2390585e-05 0.1222152 -2.4560902e-07 -0.0002359597

gamma_generator.net3.0.weight f4 [16, 16, 3, 3]
00000000: 30ce d70b c354 840d c5cb 960b cec4 6f0d
00000010: 2692 470d 64a2 158d 1fac 5e0d c41c b38c
00000020: 93dd 878d 3e91 08bc 978a b9bc ea69 0fbd
00000030: cd5a 85bc 8131 05bd 2d27 73bd 1813 653c
00000040: c4d6 61bc fee3 34bd 97f8 0180 3bab 0100
00000050: 7517 0180 178c 0080 0d20 0200 b11a 0100
00000060: 3ef3 0000 6354 0080 398c 0180 bb84 0000
00000070: aa33 0080 d97f 0180 5c3a 0000 bfdb 0080
00000080: 6d18 0000 cede 0080 072a 0080 3973 0100
00000090: 49b5 0080 c169 0000 c62b 0000 2289 0100
000000a0: 1c99 0080 112c 0080 2a4c 0000 643e 0000
000000b0: 8510 0180 3925 b6bd 4418 debc 6a30 82bd
000000c0: 517c 07bd b400 293c 93e9 d7bc 79cc 85bd
000000d0: 4d95 aebc ea06 21bd d932 8a93 459b eb13
000000e0: d079 fd13 741c 0291 6407 0d14 1ffb 0714
000000f0: 6827 e813 7a8a 0d14 50b0 3713 18f0 0000
00000100: bac6 0080 edf0 0080 adf1 0000 7fc8 0080
00000110: f166 0080 0d94 0080 0276 0080 b4f3 0080
00000120: e519 b23d f617 153e 76bd 073d 51c2 dc3d
00000130: 9360 433e 285f 9e3d 633d 813d 3136 093e
00000140: cb24 383d e208 0000 68b9 0080 0c38 0000
00000150: c3c1 0000 4617 0080 8a8c 0000 0c47 0000
00000160: 0293 0000 0149 0080 cf04 0080 86d4 0080
00000170: 6ab5 0080 94d4 0000 2f61 0100 931d 0100
00000180: 07a1 0000 84d1 0000 d373 0180 aa99 0923
00000190: 4459 c422 39fc 7822 5d16 0423 8b0e be22
000001a0: 533c 8322 d6d8 c122 0436 8322 dd3c 2622
000001b0: fdbf a20f 10b2 d20e 2630 9b0d ad02 170f
000001c0: 7bae b68f 65f8 a88f 4003 020f d2e9 1c0f
000001d0: 6e7e 2f8f d4fd 04bd 29c4 3cbc 776a 8ebd
000001e0: 1483 b23a 6cc3 b93c e22a eabc 7471 23bd
000001f0: b729 2fbc 907f 2cbd cf72 0000 7225 0000
00000200: c82f 0000 9b96 0000 b9c4 0080 c5bf 0000
00000210: 9071 0080 d325 0000 c841 0000 03ed 3d1e
00000220: 90be 7a1d 986b 239e 85ef 961e 393b 811e
00000230: 531e 951c b1d3 889d 23cf 801d 8da0 911e
00000240: 3f73 490d 5c61 ed0c e447 0e0c 44b8 3a0d
00000250: 7c5a c60c 6f6e 2b0b f248 3d0d 9bff ed0c
00000260: cae5 320c 6d04 413e f306 3d3e eeb1 403e
00000270: 9d67 143e 64c1 0f3e 2337 0e3e f6d2 0d3e
00000280: 1f22 023e 053f f23d 0893 0100 6f2c 0080
00000290: 5347 0080 13e8 0100 398c 0000 db1a 0280
000002a0: 51ce 0180 c9b7 0080 8d0e 0000 d4fa 1380
000002b0: 7e6c 1280 bb62 1380 783d 1380 8156 1080
000002c0: 6a7a 1280 e756 1480 beb4 1280 d5a6 1380
000002d0: 3335 0180 ab1d 0100 e79a 0080 1a2c 0100
000002e0: 4011 0100 e604 0180 545f 0100 3f08 0000
000002f0: 403f 0100 d360 91bd 5f65 60bc 6765 053d
00000300: fee8 13bd 1696 f53b eef0 143d e573 123d
00000310: 6f81 813d 31d1 b63d 389d 3593 60f7 1912
00000320: 08e1 1113 b32f 0c12 7899 8713 4af9 7313
00000330: 89d9 8113 a152 0113 ee0b 9692 422f 0000
00000340: 2f78 0000 7d45 0000 9837 0080 fc46 0080
00000350: fe25 0080 6ddc 0080 a0c3 0080 5ad5 0080
00000360: 1b41 debd 1815 5e3c ca2b 95bc 788b afbd
00000370: 56b6 1f3d 2380 9fba 0e13 50bd 6056 773d
00000380: 14e1 273d 7dc1 0080 00de 0000 03b1 0000
00000390: 16a2 0080 c43a 0080 3fa7 0080 87d4 0000
000003a0: c72a 0000 1ec9 0000 2931 0080 f361 0080
000003b0: 93bf 0080 2d28 0180 fdfc 0000 0898 0000
000003c0: 7250 0000 045c 0000 ed82 0000 17c9 b322
000003d0: 5595 7d22 8236 1d22 d00b 8b22 c4d2 2122
000003e0: d477 8021 f51e 7f22 be00 0622 57a1 2f21
000003f0: 2284 198f 7458 d58e 2283 400f b096 a98f
8.3125224e-32 8.155534e-31 5.8084497e-32 7.3884456e-31 6.149753e-31 -4.610964e-31 6.8616215e-31 -2.759663e-31
-8.373359e-31 -0.00833541 -0.022649093 -0.035013117 -0.016278649 -0.032517914 -0.059363533 0.013981603
-0.013784114 -0.044162743 -1.81013e-40 1.53261e-40 -1.0025e-40 -5.0255e-41 1.95169e-40 1.0141e-40
8.7259e-41 -3.0272e-41 -1.42138e-40 4.7615e-41 -1.8534e-41 -1.37699e-40 2.0935e-41 -7.883e-41
8.762e-42 -7.9927e-41 -1.5077e-41 1.3317e-40 -6.5033e-41 3.7937e-41 1.5703e-41 1.4103e-40
-5.4925e-41 -1.5808e-41 2.7323e-41 2.2382e-41 -9.7762e-41 -0.088938184 -0.02711118 -0.063568905
-0.03307754 0.010315109 -0.026356494 -0.06533141 -0.021311427 -0.039313234 -3.4886237e-27 5.9475448e-27
6.3986295e-27 -1.026396e-28 7.120138e-27 6.865283e-27 5.860389e-27 7.1459905e-27 2.3184776e-27 8.613e-41
-7.129e-41 -8.6428e-41 8.6697e-41 -7.1924e-41 -3.6928e-41 -5.311e-41 -4.2333e-41 -8.7424e-41
0.08696345 0.14559922 0.03313967 0.107792504 0.19079809 0.07732993 0.06310537 0.13399579
0.044956964 3.187e-42 -6.6511e-41 2.0106e-41 6.9509e-41 -8.349e-42 5.0416e-41 2.5487e-41
5.2736e-41 -2.6189e-41 -1.725e-42 -7.6239e-41 -6.5079e-41 7.6259e-41 1.26698e-40 1.02445e-40
5.7766e-41 7.516e-41 -1.33385e-40 7.4593245e-18 5.322042e-18 3.3743793e-18 7.16047e-18 5.1515e-18
3.557149e-18 5.254234e-18 3.5564812e-18 2.2529416e-18 1.6048385e-29 5.1940465e-30 9.564204e-31 7.44539e-30
-1.8013793e-29 -1.6661757e-29 6.410121e-30 7.736426e-30 -8.6525156e-30 -0.032468632 -0.011521378 -0.069539
0.0013619387 0.022676192 -0.028584901 -0.03990312 -0.010691098 -0.04211384 4.1186e-41 1.3433e-41
1.714e-41 5.4027e-41 -7.0571e-41 6.8794e-41 -4.0739e-41 1.3569e-41 2.3598e-41 1.00545896e-20
3.3185743e-21 -8.651398e-21 1.598093e-20 1.36829e-20 9.867832e-22 -3.6217784e-21 3.4095492e-21 1.5418874e-20
6.207663e-31 3.6574228e-31 1.0960916e-31 5.7537477e-31 3.0561189e-31 3.3016483e-32 5.8327926e-31 3.6669469e-31
1.3781771e-31 0.18849345 0.18459682 0.18817875 0.1449265 0.14038616 0.1388822 0.13850006
0.12708329 0.11828426 1.4458e-40 -1.594e-41 -2.5586e-41 1.75088e-40 5.0302e-41 -1.93305e-40
-1.65848e-40 -6.593e-41 5.22e-42 -1.834855e-39 -1.691959e-39 -1.780292e-39 -1.766925e-39 -1.5004e-39
-1.696953e-39 -1.867885e-39 -1.717877e-39 -1.804722e-39 -1.1092e-40 1.02478e-40 -5.5568e-41 1.07656e-40
9.8024e-41 -9.3593e-41 1.26033e-40 2.958e-42 1.14525e-40 -0.07098546 -0.013696044 0.032567408
-0.03611087 0.0074946983 0.03636258 0.035755057 0.063235156 0.08926619 -2.2922927e-27 4.85832e-28
1.8412522e-27 4.4235005e-28 3.4230123e-27 3.0793821e-27 3.2778684e-27 1.6322828e-27 -9.469272e-28 1.6953e-41
4.3114e-41 2.4928e-41 -1.9943e-41 -2.5464e-41 -1.3629e-41 -7.9074e-41 -7.0177e-41 -7.6536e-41
-0.10852262 0.013554834 -0.018209357 -0.085715234 0.03899225 -0.0012168925 -0.050799422 0.060385108
0.040986136 -6.941e-41 7.9639e-41 6.35e-41 -5.8145e-41 -2.1081e-41 -5.9997e-41 7.624e-41
1.5346e-41 7.2147e-41 -1.7635e-41 -3.5138e-41 -6.8724e-41 -1.06248e-40 9.0755e-41 5.4539e-41
2.8858e-41 3.3009e-41 4.6967e-41 4.873096e-18 3.436695e-18 2.1306324e-18 3.7688532e-18 2.1931147e-18
8.705336e-19 3.4575333e-18 1.816078e-18 5.950584e-19 -7.56893e-30 -5.259373e-30 9.491586e-30 -1.672273e-29

gamma_generator.net3.0.bias f4 [16]
00000000: f8df b63e 27f6 123c efee ecbc adc3 403e
00000010: cdaa 0000 1b3c b03e f6db 0c3d 169f 633e
00000020: a6a2 a63c fb86 fc3d 706a 553e 2230 dcbc
00000030: 9cbe 2c3c 15db 3b3e 4c4f 913e 3eb8 c73e
0.3571775 0.00896982 -0.028922526 0.18824644 6.1272e-41 0.34420857 0.03438946 0.22228655
0.020341229 0.12330433 0.20841384 -0.02687842 0.010543492 0.18345292 0.2838081 0.39007753

gamma_generator.net4.0.weight f4 [16, 16, 3, 3]
00000000: 8865 70bc cd14 a53b 37bd cebb 42d9 89bb
00000010: 86b8 9b3c 2ac7 a33b 8472 10bd 1896 88bc
00000020: ce56 ecbc b84e 763c 56a3 aa3c dd84 5e3b
00000030: e5d4 023d 1190 2e3d 2a24 b23c e873 483c
00000040: f2f8 bb3c fefa 6d3a 4b47 98bb fa62 9c3a
00000050: efa7 cd3a 9170 363c 01f9 8c3c 9c89 803c
00000060: 049b 9abb 7c44 9d39 bd27 5db7 6875 893d
00000070: 3bd5 933d 8418 993d 176e 843d d7ed 8e3d
00000080: bb31 923d 2d02 733d b906 833d e967 853d
00000090: b34f 0000 7bab 0000 3fd1 0000 c950 0000
000000a0: 53ba 0000 e1c1 0000 6691 0000 c6b7 0000
000000b0: c357 0000 a1bf 1dbd 4074 85bc 6cfa bfbc
000000c0: 28df 7dbc 103d 3a3c eb41 dc3a 5e46 1cbd
000000d0: 3fd5 74bc 9283 c5bc 5ed2 eebc 6098 89bc
000000e0: ec91 cebc 5e17 aebc 44a2 05bc 0ec9 91bc
000000f0: cacf b7bc 9285 31bc 16cc a6bc 5cce 743d
00000100: e79e d83c 03e8 b0bc 85ff 863d 4676 033d
00000110: 2d26 9cbc 9c61 643d 6a3e c33c 28f7 a7bc
00000120: f015 0ebc 512c 8f3c abee a9ba 23c2 063c
00000130: fc8b 1a3d 58ae 8a3c e9ec dcbb 4974 cb3c
00000140: 8577 863a ac6d f1bd 3634 b1bd 2bfa ddbd
00000150: 4c03 b9bd 7e9c 60bd 215f a3bd a970 ddbd
00000160: 882b 9dbd 3e38 d1bd 3900 8e3d 9702 9a3d
00000170: 4a57 a63d dbe6 853d 0bef 913d 1aed 9c3d
00000180: d4f8 703d 4a70 833d f8e9 8d3d 0b23 d7ba
00000190: 31ef 80ba c732 a4ba 9db2 603a 2b3a cd3a
000001a0: 7f8f 173a 106e 81b8 85bc 14b9 822e 2db5
000001b0: d0f0 db31 b87f ef3a 879f 10bc f021 d1bb
000001c0: e268 4bbb b38a 79bc a166 7cbc af7e 3dbc
000001d0: f3ec c6bc 6233 313d 8b77 413d 32f6 3d3d
000001e0: 2ab7 523d 2c2c 673d e228 5f3d 1b73 423d
000001f0: 2cc9 563d 5eda 4d3d 1fd6 82bd 46ed 80bc
00000200: dfa6 33bd 3dfd d3bc abd3 d53c 4961 7abb
00000210: 78fa 88bd 93a8 8abc 0277 3abd f47c 01bd
00000220: f313 73bc d117 1dbc 5ec6 b0bc e312 d2b9
00000230: 1c7b 103b b602 0bbd 2671 80bc 44f8 49bc
00000240: f23c 0080 c801 0080 8c39 0080 180a 0080
00000250: c631 0000 f501 0080 7050 0080 e408 0000
00000260: ba3f 0080 3348 0000 0f52 0000 8123 0000
00000270: 2201 0000 1a65 0080 319b 0000 1de1 0000
00000280: 5692 0000 3db7 0080 15c4 0000 7e16 0100
00000290: 9349 0000 2191 0000 92d0 0000 28df 0080
000002a0: 684e 0000 96c8 0080 6aae 0000 2fe1 f003
000002b0: fb35 e603 f949 e603 a626 ee03 127c ce03
000002c0: e783 db03 2641 ed03 8a75 e503 6564 e403
000002d0: a992 0000 b65c 0080 ee0b 0180 ce53 0100
000002e0: db42 0080 1657 0080 8db3 0000 085c 0100
000002f0: 2f3e 0100 cb52 0000 1588 0000 8897 0000
00000300: 2d6e 0000 a1be 0000 0794 0000 a168 0000
00000310: c3a0 0000 d6a4 0000 66c4 40a2 0baf 57a2
00000320: a9cd 41a2 4e74 5aa2 f5d2 74a2 0615 5ca2
00000330: bd7c 48a2 4fe2 60a2 082e 4aa2 bbc0 0080
00000340: 30d1 0080 7f3e 0000 4180 0080 1d42 0080
00000350: 0219 0080 b35a 0080 eb8a 0080 9d0e 0000
00000360: 268a 0000 7352 0000 4f79 0000 4bce 0080
00000370: 4227 0000 22e2 0000 4fc8 0000 eb2d 0000
00000380: db3a 0000 294f 950a 8829 cb0a c449 9b0a
00000390: f75b c70a 7c50 070b b6af cf0a a7e9 9c0a
000003a0: bce6 d50a 14d7 a30a 12b9 0780 5858 0880
000003b0: b71d 0880 ed41 0880 37c4 0880 3464 0880
000003c0: 6d2f 0780 29fc 0780 7775 0780 a452 0000
000003d0: c60d 0100 9678 0000 c229 0000 ec84 0180
000003e0: 3954 0000 2772 0080 cff4 0000 943a 0100
000003f0: daad 0080 436c 0080 b5f6 0080 c913 0100
-0.014672644 0.00503788 -0.0063091773 -0.0042068074 0.019008886 0.0049981074 -0.03526546 -0.016673133
-0.028849985 0.015033416 0.020829838 0.0033953704 0.031941313 0.04261786 0.02174576 0.012234665
0.022945855 0.0009078233 -0.0046471707 0.0011931353 0.0015690307 0.011135236 0.017208578 0.015690617
-0.0047181863 0.00029996398 -1.3181879e-05 0.067118466 0.07218405 0.07475379 0.064663105 0.06978958
0.071383916 0.059328247 0.063977666 0.0651396 2.859e-41 6.1516e-41 7.5063e-41 2.898e-41
6.684e-41 6.955e-41 5.2159e-41 6.5925e-41 3.1483e-41 -0.03851283 -0.016290784 -0.02343484
-0.015495099 0.0113670975 0.0016804313 -0.038153045 -0.01494342 -0.02411059 -0.029153045 -0.01679629
-0.025216065 -0.021251377 -0.008156363 -0.017796066 -0.022437949 -0.010835068 -0.020360988 0.059767112
0.026442958 -0.021595007 0.06591705 0.032095216 -0.019061172 0.05575715 0.023833472 -0.020503595
-0.0086722225 0.017477186 -0.0012964805 0.008224997 0.037731156 0.016928837 -0.006742109 0.024835723
0.0010259008 -0.117884964 -0.086525366 -0.108387314 -0.09033832 -0.054836743 -0.07977129 -0.10812504
-0.076743186 -0.102158055 0.06933636 0.07520025 0.08122118 0.06538173 0.07125672 0.07662411
0.05883105 0.06417902 0.069293916 -0.0016413642 -0.000983691 -0.001252734 0.00085715373 0.0015657594
0.00057815755 -6.1717e-05 -0.00014184609 -6.45152e-07 6.401116e-09 0.0018272316 -0.008827097 -0.0063822195
-0.0031037857 -0.015230822 -0.015405328 -0.011565848 -0.024282908 0.043261893 0.047233146 0.04637737
0.05144421 0.05643861 0.05448235 0.047473054 0.052437946 0.05025708 -0.063884966 -0.01573814
-0.043860313 -0.02587759 0.026101908 -0.003820496 -0.06688398 -0.016926086 -0.04552365 -0.031613305
-0.014836299 -0.009588198 -0.021578964 -0.00040068393 0.0022046035 -0.033938132 -0.015678953 -0.012327258
-2.1863e-41 -6.39e-43 -2.0644e-41 -3.621e-42 1.7855e-41 -7.02e-43 -2.8856e-41 3.19e-42
-2.2861e-41 2.59e-41 2.9437e-41 1.2736e-41 4.06e-43 -3.6268e-41 5.5672e-41 8.0755e-41
5.2495e-41 -6.5734e-41 7.0341e-41 9.9904e-41 2.6393e-41 5.2062e-41 7.4821e-41 -8.0053e-41
2.8127e-41 -7.1957e-41 6.2568e-41 1.4157632e-36 1.3530578e-36 1.3535168e-36 1.3997256e-36 1.2136077e-36
1.2901946e-36 1.3944565e-36 1.3486396e-36 1.3423685e-36 5.2612e-41 -3.3258e-41 -9.6115e-41 1.21899e-40
-2.3983e-41 -3.124e-41 6.441e-41 1.2485e-40 1.14143e-40 2.97e-41 4.8817e-41 5.4359e-41
3.9524e-41 6.8385e-41 5.3102e-41 3.7534e-41 5.767e-41 5.9132e-41 -2.6124825e-18 -2.92306e-18
-2.6265253e-18 -2.960608e-18 -3.3179846e-18 -2.982669e-18 -2.717109e-18 -3.0477468e-18 -2.7400474e-18 -6.9139e-41
-7.5042e-41 2.242e-41 -4.6009e-41 -2.3717e-41 -8.971e-42 -3.2537e-41 -4.9834e-41 5.242e-42
4.9558e-41 2.9577e-41 4.3517e-41 -7.4004e-41 1.4083e-41 8.1121e-41 7.1857e-41 1.6472e-41
2.1113e-41 1.4377955e-32 1.9563811e-32 1.4953705e-32 1.9197596e-32 2.6060604e-32 1.999947e-32 1.5110144e-32
2.0597947e-32 1.5777232e-32 -7.09239e-40 -7.66376e-40 -7.45344e-40 -7.58334e-40 -8.05073e-40 -7.7063e-40
-6.59862e-40 -7.33306e-40 -6.84987e-40 2.9646e-41 9.6776e-41 4.3258e-41 1.498e-41 -1.39519e-40
3.0213e-41 -4.095e-41 8.7821e-41 1.1285e-40 -6.2366e-41 -3.8837e-41 -8.8502e-41 9.8933e-41

gamma_generator.net4.0.bias f4 [16]
00000000: 4978 0c3d 9c2e 0080 fcf3 8fbd 39db 243e
00000010: cd84 f439 776a 359e 3398 cd3e 5ce4 94b9
00000020: 65c4 0000 80eb 6f35 b428 0a3e a5d3 c83e
00000030: f219 1e3e 3f1c d107 582f 8e11 2606 503d
0.0342944 -1.672e-41 -0.07028958 0.16099252 0.0004663825 -9.604077e-21 0.4015518 -0.000283989
7.0453e-41 8.9377136e-07 0.1349209 0.39223972 0.15439585 3.1463426e-34 2.2432828e-28 0.050787114

gamma_generator.net5.0.weight f4 [3, 16, 3, 3]
00000000: 5925 b3bc a4a9 6ebc f0a8 85bc 6b6c cabc
00000010: 4a74 8abc a0a4 83bc ed57 a1bc ade9 4ebc
00000020: e407 4cbc bed3 0080 b5b0 0000 ab3a 0000
00000030: 2c7b 0000 375a 0080 16a3 0080 38c1 0080
00000040: 00a9 0080 11bb 0000 de9d c2bb 62f7 9abc
00000050: ff9b 293b 0c13 d8bc 439b 14bd 2675 85bc
00000060: 3d2f 623b 3261 2bbc 0e4f 313c 726e 113d
00000070: c739 99bd 6fd2 59bc 629a 40bc 533a fcbd
00000080: 1237 77bd 9160 b13d 7f7d a5bc d830 bc3c
00000090: 795c e1b9 b64e 35ba fcbc 363a 6564 e4b9
000000a0: 3897 5fba 15d1 593a 30cf 00ba 8435 6cba
000000b0: 8229 3a3a c56b 0080 d7bf 0080 0598 0080
000000c0: 730f 0080 f7d1 0080 ddfb 0080 8df1 0080
000000d0: b1a0 0000 b619 0100 a1aa 1b3d bae0 50be
000000e0: 814d c4bd 4803 4bbb c78a 9fbe 883d 4bbe
000000f0: 4911 a23d 3bfb 1cbe 6c98 90bd 4389 07a5
00000100: efc1 1e27 722a 22a7 47b9 5427 f5ab b3a6
00000110: 5564 69a5 9863 08a7 bc98 53a6 c0f4 f026
00000120: fd99 0180 b831 0100 761a 0100 e206 0200
00000130: a233 0080 f827 0000 eda9 0000 d6f6 0000
00000140: 1b82 0100 2284 312b c467 212a dfce 482a
00000150: 2ccf 81ab 3716 22ac a09c 6fab 14f3 1fac
00000160: ead0 94ac 618a ffab d56c d13d e94e 0b3e
00000170: 4065 523e 9b5c 21be 6735 42be ae36 a4bd
00000180: f78e 36be 3cc7 52be ad2a c9bd 22a3 16be
00000190: 5c7f 00be e1a0 be3d 2d53 6dbe dd3f 73be
000001a0: 08d9 a6bb 05ed d2bc 5cd0 70bd 31b7 2d3e
000001b0: 87e1 363b f5b5 c03c 8d87 50bb 4682 d73c
000001c0: d592 303d 35d1 bb3c 5f66 fdba 9d52 8f3c
000001d0: b5bd d4bb 18f1 0080 c145 0100 d3ae 0000
000001e0: 808c 0080 bd0d 0100 370b 0180 2142 0100
000001f0: 2d76 0080 0e15 0180 c6bc 0100 025e 0180
00000200: 490f 0000 f927 0180 c668 0080 aa43 0080
00000210: 930a 0100 c42c 0180 f3ce 0180 874b 14bd
00000220: 789c 17bd 0e50 0cbd 27a8 96bc 31ec c6bc
00000230: 00ad 97bc 2222 d73c 5c0b f23c 22d1 0b3d
00000240: 1608 aabc ef3a 2fbc 806c 8bbc 2199 cbbc
00000250: 90de 76bc 9a0b 98bc c185 8cbc c0c4 0cbc
00000260: d0ed 44bc e8b0 0080 d66b 0080 c769 0000
00000270: 741f 0000 58cf 0080 63be 0000 44c1 0000
00000280: 26c4 0080 efb4 0080 479a 02bc d471 97bc
00000290: f984 b03a fa05 c6bc 6c37 05bd 5123 5bbc
000002a0: 122f 643b ad82 17bc f312 383c 2ee5 023d
000002b0: c489 edbd 807b f3bc 1dc3 24bd cfd0 36be
000002c0: b78f ddbd 3dc7 953d 5b18 87bd 1897 203c
000002d0: 08a7 12b9 a723 20ba cac4 023b e17b 89b9
000002e0: 709c 66ba 501c f03a dc61 a2b9 b321 76ba
000002f0: d4ce cd3a 20f4 0000 7500 0180 b782 0080
00000300: 6089 0080 f7e0 0000 d009 0100 0338 0080
00000310: 7a11 0080 c812 0180 509f 453d a3f8 21be
00000320: 0c3c bbbd c59e 2b3c 2dfd 8fbe 9169 33be
00000330: fc6e d23d dadb 0dbe 63f6 44bd 152a 1fa4
00000340: 18ac 39a5 8e85 3726 4d7e fa25 9857 88a6
00000350: bff0 8726 c585 cea5 6689 ef25 d1f0 40a6
00000360: 1198 0100 ec8b 0100 122a 0100 8c17 0200
00000370: 7fef 0180 9b05 0080 027f 0080 293f 0000
00000380: 67f7 0100 2878 bc2a 48ba a42a 8b3a 452b
00000390: d29a 5c2a fad2 352a 6a8b f62a 9efe db2a
000003a0: cfc5 b52a b301 762b f35f da3d c6c3 153e
000003b0: 2fb6 583e 4776 20be a0e0 40be 256d 9bbd
000003c0: acf1 3dbe dd2b 5cbe 42cd a7bd cc42 18be
000003d0: 6e3b 08be bbc5 b13d 2f73 61be 32ec 8abe
000003e0: 1e07 9a3c df1a 03bd 8c74 efbc 0575 243e
000003f0: f1c8 0b3b a773 be3c 984b 5cbb a415 d83c
-0.021868395 -0.014566813 -0.016315907 -0.0247099 -0.016901154 -0.01606971 -0.019695247 -0.012628955
-0.012453053 -7.5959e-41 6.339e-41 2.1046e-41 4.4186e-41 -3.2363e-41 -5.8504e-41 -6.9314e-41
-6.0626e-41 6.7107e-41 -0.0059392294 -0.01891679 0.0025880334 -0.02637627 -0.03628088 -0.016291212
0.003451302 -0.010460185 0.010822071 0.03550572 -0.07481723 -0.0132948 -0.011755558 -0.12315812
-0.060355254 0.08660997 -0.020201443 0.02297251 -0.00042984242 -0.0006916331 0.000697091 -0.0004356235
-0.0008529308 0.0008309049 -0.0004913686 -0.000901066 0.0007101522 -3.866e-41 -6.8819e-41 -5.4534e-41
-5.542e-42 -7.5321e-41 -9.0352e-41 -8.6652e-41 5.7645e-41 1.01059e-40 0.03800452 -0.20398226
-0.09585095 -0.0030977298 -0.31160566 -0.19847691 0.07913453 -0.15330212 -0.07060322 -1.175589e-16
2.2032036e-15 -2.2505026e-15 2.952135e-15 -1.2467229e-15 -2.0243522e-16 -1.8927781e-15 -7.3412324e-16 1.6719685e-15
-1.47076e-40 1.09671e-40 1.01328e-40 1.8614e-40 -1.8522e-41 1.4338e-41 6.0958e-41 8.8548e-41
1.38509e-40 6.3066403e-13 1.4335673e-13 1.7835341e-13 -9.223503e-13 -2.3033916e-12 -8.512722e-13 -2.2730194e-12
-4.229607e-12 -1.8157248e-12 0.10225836 0.1360432 0.20546436 -0.15757982 -0.18965684 -0.08018242
-0.17827974 -0.20583814 -0.09822593 -0.14710668 -0.12548584 0.09308029 -0.2317626 -0.2375483
-0.00509179 -0.025747785 -0.058792457 0.16964413 0.002790542 0.023524264 -0.0031819076 0.026307236
0.04310878 0.022926906 -0.0019332877 0.017495448 -0.0064923414 -8.6488e-41 1.16858e-40 6.2715e-41
-5.0402e-41 9.6764e-41 -9.5859e-41 1.15558e-40 -4.2393e-41 -9.9388e-41 1.59555e-40 -1.25559e-40
5.483e-42 -1.06175e-40 -3.7586e-41 -2.4273e-41 9.5629e-41 -1.07894e-40 -1.66075e-40 -0.03620484
-0.037014455 -0.034256034 -0.018390728 -0.024282547 -0.01851511 0.026261393 0.029546432 0.03413499
-0.020755809 -0.010695203 -0.01701951 -0.024853291 -0.0150677115 -0.01856022 -0.017153623 -0.008591831
-0.01201959 -6.3462e-41 -3.8684e-41 3.7946e-41 1.1283e-41 -7.4381e-41 6.8298e-41 6.933e-41
-7.0365e-41 -6.4907e-41 -0.007971353 -0.018486895 0.0013467363 -0.024172772 -0.032523558 -0.013375119
0.0034818095 -0.009247464 0.011234987 0.031956844 -0.11598542 -0.029721975 -0.040225137 -0.17853092
-0.10818427 0.07313392 -0.06596442 0.009801649 -0.00013985869 -0.0006108828 0.0019953721 -0.00026222973
-0.0008797115 0.0018318985 -0.0003097196 -0.0009389177 0.0015701898 8.7576e-41 -9.2e-41 -4.6892e-41
-4.9281e-41 8.0702e-41 9.5356e-41 -2.0093e-41 -6.27e-42 -9.8573e-41 0.048247635 -0.15817504
-0.091423124 0.010474865 -0.28122845 -0.17520739 0.10275075 -0.13853398 -0.048086535 -3.4513274e-17
-1.61045e-16 6.367188e-16 4.3453672e-16 -9.460638e-16 9.432761e-16 -3.582595e-16 4.1552996e-16 -6.693975e-16
1.46387e-40 1.4203e-40 1.06927e-40 1.92118e-40 -1.7775e-40 -2.011e-42 -4.5562e-41 2.2658e-41
1.80587e-40 3.3478884e-13 2.926151e-13 7.0069704e-13 1.9593639e-13 1.6149227e-13 4.3795116e-13 3.907889e-13
3.2289316e-13 8.7399115e-13 0.10662832 0.14625463 0.21163248 -0.15670119 -0.18835688 -0.07589177
-0.18549222 -0.21501108 -0.08193447 -0.14869231 -0.1330392 0.08680292 -0.22016595 -0.27133328
0.018802222 -0.03200805 -0.029230379 0.16060264 0.0021329487 0.023248507 -0.0033614393 0.026377507

gamma_generator.net5.0.bias f4 [3]
00000000: ac49 093e cc55 0b3e 9c7e 30bd
0.1340701 0.13606948 -0.043089494
